五一数模/2022-51MCM-Problems/2022-51MCM-Problem C/model_name.pth (torch, 1191 bytes, 1 tensors)

linear.weight f4 [1, 17]
0	0xbd532e1e	-0.051557653
1	0xbe952856	-0.29132336
2	0x3dce4b61	0.10072971
3	0xbd640cd5	-0.0556763
4	0xbed8d5d0	-0.42350626
5	0xbe278609	-0.16359724
6	0xbf01a8c8	-0.50648165
7	0xbee5ad83	-0.4485894
8	0xbe26db20	-0.16294527
9	0x3db2ec04	0.08736423
10	0xbe10f7c1	-0.1415701
11	0xbe507224	-0.20356041
12	0x3e0a355e	0.1349692
13	0x3ca2e56b	0.019884786
14	0x3cd8b152	0.02645174
15	0xbeba550e	-0.36393017
16	0xbbd01ebf	-0.0063513215
